…
    print_freq: 100
    optimizer:[
      type: adam
      lr: 0.0001
    ]
  ]

25-03-12 15:26:13.477 - INFO: Dataset [Harvard_Dataset - train] is created.
25-03-12 15:26:13.477 - INFO: Dataset [Harvard_Test_Dataset - val] is created.
25-03-12 15:26:13.477 - INFO: Initial Dataset Finished
25-03-12 15:26:13.619 - INFO: Initialization method [orthogonal]
25-03-12 15:26:14.110 - INFO: Network G structure: GaussianDiffusion, with parameters: 23,736,399
25-03-12 15:26:14.110 - INFO: GaussianDiffusion(
  (denoise_fn): UNet(
    (noise_level_mlp): Sequential(
      (0): PositionalEncoding()
      (1): Linear(in_features=48, out_features=192, bias=True)
      (2): Swish()
      (3): Linear(in_features=192, out_features=48, bias=True)
    )
    (downs): ModuleList(
      (0): Conv2d(3, 48, kernel_size=(3, 3), stride=(1, 1), padding=(1, 1))
      (1-2): 2 x ResnetBlocWithAttn(
        (res_block): ResnetBlock(
          (noise_func): FeatureWiseAffine(
            (noise_func): Sequential(
              (0): Linear(in_features=48, out_features=48, bias=True)
            )
          )
          (block1): Block(
            (block): Sequential(
              (0): GroupNorm(24, 48, eps=1e-05, affine=True)
              (1): Swish()
              (2): Identity()
              (3): Conv2d(48, 48, kernel_size=(3, 3), stride=(1, 1), padding=(1, 1))
            )
          )
          (block2): Block(
            (block): Sequential(
              (0): GroupNorm(24, 48, eps=1e-05, affine=True)
              (1): Swish()
              (2): Dropout(p=0.1, inplace=False)
              (3): Conv2d(48, 48, kernel_size=(3, 3), stride=(1, 1), padding=(1, 1))
            )
          )
          (res_conv): Identity()
        )
      )
      (3): Downsample(
        (conv): Conv2d(48, 48, kernel_size=(3, 3), stride=(2, 2), padding=(1, 1))
      )
      (4): ResnetBlocWithAttn(
        (res_block): ResnetBlock(
          (noise_func): FeatureWiseAffine(
            (noise_func): Sequential(
              (0): Linear(in_features=48, out_features=96, bias=True)
            )
          )
          (block1): Block(
            (block): Sequential(
              (0): GroupNorm(24, 48, eps=1e-05, affine=True)
              (1): Swish()
              (2): Identity()
              (3): Conv2d(48, 96, kernel_size=(3, 3), stride=(1, 1), padding=(1, 1))
            )
          )
          (block2): Block(
            (block): Sequential(
              (0): GroupNorm(24, 96, eps=1e-05, affine=True)
              (1): Swish()
              (2): Dropout(p=0.1, inplace=False)
              (3): Conv2d(96, 96, kernel_size=(3, 3), stride=(1, 1), padding=(1, 1))
            )
          )
          (res_conv): Conv2d(48, 96, kernel_size=(1, 1), stride=(1, 1))
        )
      )
      (5): ResnetBlocWithAttn(
        (res_block): ResnetBlock(
          (noise_func): FeatureWiseAffine(
            (noise_func): Sequential(
              (0): Linear(in_features=48, out_features=96, bias=True)
            )
          )
          (block1): Block(
            (block): Sequential(
              (0): GroupNorm(24, 96, eps=1e-05, affine=True)
              (1): Swish()
              (2): Identity()
              (3): Conv2d(96, 96, kernel_size=(3, 3), stride=(1, 1), padding=(1, 1))
            )
          )
          (block2): Block(
            (block): Sequential(
              (0): GroupNorm(24, 96, eps=1e-05, affine=True)
              (1): Swish()
              (2): Dropout(p=0.1, inplace=False)
              (3): Conv2d(96, 96, kernel_size=(3, 3), stride=(1, 1), padding=(1, 1))
            )
          )
          (res_conv): Identity()
        )
      )
      (6): Downsample(
        (conv): Conv2d(96, 96, kernel_size=(3, 3), stride=(2, 2), padding=(1, 1))
      )
      (7): ResnetBlocWithAttn(
        (res_block): ResnetBlock(
          (noise_func): FeatureWiseAffine(
            (noise_func): Sequential(
              (0): Linear(in_features=48, out_features=192, bias=True)
            )
          )
          (block1): Block(
            (block): Sequential(
              (0): GroupNorm(24, 96, eps=1e-05, affine=True)
              (1): Swish()
              (2): Identity()
              (3): Conv2d(96, 192, kernel_size=(3, 3), stride=(1, 1), padding=(1, 1))
            )
          )
          (block2): Block(
            (block): Sequential(
              (0): GroupNorm(24, 192, eps=1e-05, affine=True)
              (1): Swish()
              (2): Dropout(p=0.1, inplace=False)
              (3): Conv2d(192, 192, kernel_size=(3, 3), stride=(1, 1), padding=(1, 1))
            )
          )
          (res_conv): Conv2d(96, 192, kernel_size=(1, 1), stride=(1, 1))
        )
      )
      (8): ResnetBlocWithAttn(
        (res_block): ResnetBlock(
          (noise_func): FeatureWiseAffine(
            (noise_func): Sequential(
              (0): Linear(in_features=48, out_features=192, bias=True)
            )
          )
          (block1): Block(
            (block): Sequential(
              (0): GroupNorm(24, 192, eps=1e-05, affine=True)
              (1): Swish()
              (2): Identity()
              (3): Conv2d(192, 192, kernel_size=(3, 3), stride=(1, 1), padding=(1, 1))
            )
          )
          (block2): Block(
            (block): Sequential(
              (0): GroupNorm(24, 192, eps=1e-05, affine=True)
              (1): Swish()
              (2): Dropout(p=0.1, inplace=False)
              (3): Conv2d(192, 192, kernel_size=(3, 3), stride=(1, 1), padding=(1, 1))
            )
          )
          (res_conv): Identity()
        )
      )
      (9): Downsample(
        (conv): Conv2d(192, 192, kernel_size=(3, 3), stride=(2, 2), padding=(1, 1))
      )
      (10): ResnetBlocWithAttn(
        (res_block): ResnetBlock(
          (noise_func): FeatureWiseAffine(
            (noise_func): Sequential(
              (0): Linear(in_features=48, out_features=288, bias=True)
            )
          )
          (block1): Block(
            (block): Sequential(
              (0): GroupNorm(24, 192, eps=1e-05, affine=True)
              (1): Swish()
              (2): Identity()
              (3): Conv2d(192, 288, kernel_size=(3, 3), stride=(1, 1), padding=(1, 1))
            )
          )
          (block2): Block(
            (block): Sequential(
              (0): GroupNorm(24, 288, eps=1e-05, affine=True)
              (1): Swish()
              (2): Dropout(p=0.1, inplace=False)
              (3): Conv2d(288, 288, kernel_size=(3, 3), stride=(1, 1), padding=(1, 1))
            )
          )
          (res_conv): Conv2d(192, 288, kernel_size=(1, 1), stride=(1, 1))
        )
        (attn): SelfAttention(
          (norm): GroupNorm(24, 288, eps=1e-05, affine=True)
          (qkv): Conv2d(288, 864, kernel_size=(1, 1), stride=(1, 1), bias=False)
          (out): Conv2d(288, 288, kernel_size=(1, 1), stride=(1, 1))
        )
      )
      (11): ResnetBlocWithAttn(
        (res_block): ResnetBlock(
          (noise_func): FeatureWiseAffine(
            (noise_func): Sequential(
              (0): Linear(in_features=48, out_features=288, bias=True)
            )
          )
          (block1): Block(
            (block): Sequential(
              (0): GroupNorm(24, 288, eps=1e-05, affine=True)
              (1): Swish()
              (2): Identity()
              (3): Conv2d(288, 288, kernel_size=(3, 3), stride=(1, 1), padding=(1, 1))
            )
          )
          (block2): Block(
            (block): Sequential(
              (0): GroupNorm(24, 288, eps=1e-05, affine=True)
              (1): Swish()
              (2): Dropout(p=0.1, inplace=False)
              (3): Conv2d(288, 288, kernel_size=(3, 3), stride=(1, 1), padding=(1, 1))
            )
          )
          (res_conv): Identity()
        )
        (attn): SelfAttention(
          (norm): GroupNorm(24, 288, eps=1e-05, affine=True)
          (qkv): Conv2d(288, 864, kernel_size=(1, 1), stride=(1, 1), bias=False)
          (out): Conv2d(288, 288, kernel_size=(1, 1), stride=(1, 1))
        )
      )
    )
    (mid): ModuleList(
      (0): ResnetBlocWithAttn(
        (res_block): ResnetBlock(
          (noise_func): FeatureWiseAffine(
            (noise_func): Sequential(
              (0): Linear(in_features=48, out_features=288, bias=True)
            )
          )
          (block1): Block(
            (block): Sequential(
              (0): GroupNorm(24, 288, eps=1e-05, affine=True)
              (1): Swish()
              (2): Identity()
              (3): Conv2d(288, 288, kernel_size=(3, 3), stride=(1, 1), padding=(1, 1))
            )
          )
          (block2): Block(
            (block): Sequential(
              (0): GroupNorm(24, 288, eps=1e-05, affine=True)
              (1): Swish()
              (2): Dropout(p=0.1, inplace=False)
              (3): Conv2d(288, 288, kernel_size=(3, 3), stride=(1, 1), padding=(1, 1))
            )
          )
          (res_conv): Identity()
        )
        (attn): SelfAttention(
          (norm): GroupNorm(24, 288, eps=1e-05, affine=True)
          (qkv): Conv2d(288, 864, kernel_size=(1, 1), stride=(1, 1), bias=False)
          (out): Conv2d(288, 288, kernel_size=(1, 1), stride=(1, 1))
        )
      )
      (1): ResnetBlocWithAttn(
        (res_block): ResnetBlock(
          (noise_func): FeatureWiseAffine(
            (noise_func): Sequential(
              (0): Linear(in_features=48, out_features=288, bias=True)
            )
          )
          (block1): Block(
            (block): Sequential(
              (0): GroupNorm(24, 288, eps=1e-05, affine=True)
              (1): Swish()
              (2): Identity()
              (3): Conv2d(288, 288, kernel_size=(3, 3), stride=(1, 1), padding=(1, 1))
            )
          )
          (block2): Block(
            (block): Sequential(
              (0): GroupNorm(24, 288, eps=1e-05, affine=True)
              (1): Swish()
              (2): Dropout(p=0.1, inplace=False)
              (3): Conv2d(288, 288, kernel_size=(3, 3), stride=(1, 1), padding=(1, 1))
            )
          )
          (res_conv): Identity()
        )
      )
    )
    (ups): ModuleList(
      (0-1): 2 x ResnetBlocWithAttn(
        (res_block): ResnetBlock(
          (noise_func): FeatureWiseAffine(
            (noise_func): Sequential(
              (0): Linear(in_features=48, out_features=288, bias=True)
            )
          )
          (block1): Block(
            (block): Sequential(
              (0): GroupNorm(24, 576, eps=1e-05, affine=True)
              (1): Swish()
              (2): Identity()
              (3): Conv2d(576, 288, kernel_size=(3, 3), stride=(1, 1), padding=(1, 1))
            )
          )
          (block2): Block(
            (block): Sequential(
              (0): GroupNorm(24, 288, eps=1e-05, affine=True)
              (1): Swish()
              (2): Dropout(p=0.1, inplace=False)
              (3): Conv2d(288, 288, kernel_size=(3, 3), stride=(1, 1), padding=(1, 1))
            )
          )
          (res_conv): Conv2d(576, 288, kernel_size=(1, 1), stride=(1, 1))
        )
        (attn): SelfAttention(
          (norm): GroupNorm(24, 288, eps=1e-05, affine=True)
          (qkv): Conv2d(288, 864, kernel_size=(1, 1), stride=(1, 1), bias=False)
          (out): Conv2d(288, 288, kernel_size=(1, 1), stride=(1, 1))
        )
      )
      (2): ResnetBlocWithAttn(
        (res_block): ResnetBlock(
          (noise_func): FeatureWiseAffine(
            (noise_func): Sequential(
              (0): Linear(in_features=48, out_features=288, bias=True)
            )
          )
          (block1): Block(
            (block): Sequential(
              (0): GroupNorm(24, 480, eps=1e-05, affine=True)
              (1): Swish()
              (2): Identity()
              (3): Conv2d(480, 288, kernel_size=(3, 3), stride=(1, 1), padding=(1, 1))
            )
          )
          (block2): Block(
            (block): Sequential(
              (0): GroupNorm(24, 288, eps=1e-05, affine=True)
              (1): Swish()
              (2): Dropout(p=0.1, inplace=False)
              (3): Conv2d(288, 288, kernel_size=(3, 3), stride=(1, 1), padding=(1, 1))
            )
          )
          (res_conv): Conv2d(480, 288, kernel_size=(1, 1), stride=(1, 1))
        )
        (attn): SelfAttention(
          (norm): GroupNorm(24, 288, eps=1e-05, affine=True)
          (qkv): Conv2d(288, 864, kernel_size=(1, 1), stride=(1, 1), bias=False)
          (out): Conv2d(288, 288, kernel_size=(1, 1), stride=(1, 1))
        )
      )
      (3): Upsample(
        (up): Upsample(scale_factor=2.0, mode='nearest')
        (conv): Conv2d(288, 288, kernel_size=(3, 3), stride=(1, 1), padding=(1, 1))
      )
      (4): ResnetBlocWithAttn(
        (res_block): ResnetBlock(
          (noise_func): FeatureWiseAffine(
            (noise_func): Sequential(
              (0): Linear(in_features=48, out_features=192, bias=True)
            )
          )
          (block1): Block(
            (block): Sequential(
              (0): GroupNorm(24, 480, eps=1e-05, affine=True)
              (1): Swish()
              (2): Identity()
              (3): Conv2d(480, 192, kernel_size=(3, 3), stride=(1, 1), padding=(1, 1))
            )
          )
          (block2): Block(
            (block): Sequential(
              (0): GroupNorm(24, 192, eps=1e-05, affine=True)
              (1): Swish()
              (2): Dropout(p=0.1, inplace=False)
              (3): Conv2d(192, 192, kernel_size=(3, 3), stride=(1, 1), padding=(1, 1))
            )
          )
          (res_conv): Conv2d(480, 192, kernel_size=(1, 1), stride=(1, 1))
        )
      )
      (5): ResnetBlocWithAttn(
        (res_block): ResnetBlock(
          (noise_func): FeatureWiseAffine(
            (noise_func): Sequential(
              (0): Linear(in_features=48, out_features=192, bias=True)
            )
          )
          (block1): Block(
            (block): Sequential(
              (0): GroupNorm(24, 384, eps=1e-05, affine=True)
              (1): Swish()
              (2): Identity()
              (3): Conv2d(384, 192, kernel_size=(3, 3), stride=(1, 1), padding=(1, 1))
            )
          )
          (block2): Block(
            (block): Sequential(
              (0): GroupNorm(24, 192, eps=1e-05, affine=True)
              (1): Swish()
              (2): Dropout(p=0.1, inplace=False)
              (3): Conv2d(192, 192, kernel_size=(3, 3), stride=(1, 1), padding=(1, 1))
            )
          )
          (res_conv): Conv2d(384, 192, kernel_size=(1, 1), stride=(1, 1))
        )
      )
      (6): ResnetBlocWithAttn(
        (res_block): ResnetBlock(
          (noise_func): FeatureWiseAffine(
            (noise_func): Sequential(
              (0): Linear(in_features=48, out_features=192, bias=True)
            )
          )
          (block1): Block(
            (block): Sequential(
              (0): GroupNorm(24, 288, eps=1e-05, affine=True)
              (1): Swish()
              (2): Identity()
              (3): Conv2d(288, 192, kernel_size=(3, 3), stride=(1, 1), padding=(1, 1))
            )
          )
          (block2): Block(
            (block): Sequential(
              (0): GroupNorm(24, 192, eps=1e-05, affine=True)
              (1): Swish()
              (2): Dropout(p=0.1, inplace=False)
              (3): Conv2d(192, 192, kernel_size=(3, 3), stride=(1, 1), padding=(1, 1))
            )
          )
          (res_conv): Conv2d(288, 192, kernel_size=(1, 1), stride=(1, 1))
        )
      )
      (7): Upsample(
        (up): Upsample(scale_factor=2.0, mode='nearest')
        (conv): Conv2d(192, 192, kernel_size=(3, 3), stride=(1, 1), padding=(1, 1))
      )
      (8): ResnetBlocWithAttn(
        (res_block): ResnetBlock(
          (noise_func): FeatureWiseAffine(
            (noise_func): Sequential(
              (0): Linear(in_features=48, out_features=96, bias=True)
            )
          )
          (block1): Block(
            (block): Sequential(
              (0): GroupNorm(24, 288, eps=1e-05, affine=True)
              (1): Swish()
              (2): Identity()
              (3): Conv2d(288, 96, kernel_size=(3, 3), stride=(1, 1), padding=(1, 1))
            )
          )
          (block2): Block(
            (block): Sequential(
              (0): GroupNorm(24, 96, eps=1e-05, affine=True)
              (1): Swish()
              (2): Dropout(p=0.1, inplace=False)
              (3): Conv2d(96, 96, kernel_size=(3, 3), stride=(1, 1), padding=(1, 1))
            )
          )
          (res_conv): Conv2d(288, 96, kernel_size=(1, 1), stride=(1, 1))
        )
      )
      (9): ResnetBlocWithAttn(
        (res_block): ResnetBlock(
          (noise_func): FeatureWiseAffine(
            (noise_func): Sequential(
              (0): Linear(in_features=48, out_features=96, bias=True)
            )
          )
          (block1): Block(
            (block): Sequential(
              (0): GroupNorm(24, 192, eps=1e-05, affine=True)
              (1): Swish()
              (2): Identity()
              (3): Conv2d(192, 96, kernel_size=(3, 3), stride=(1, 1), padding=(1, 1))
            )
          )
          (block2): Block(
            (block): Sequential(
              (0): GroupNorm(24, 96, eps=1e-05, affine=True)
              (1): Swish()
              (2): Dropout(p=0.1, inplace=False)
              (3): Conv2d(96, 96, kernel_size=(3, 3), stride=(1, 1), padding=(1, 1))
            )
          )
          (res_conv): Conv2d(192, 96, kernel_size=(1, 1), stride=(1, 1))
        )
      )
      (10): ResnetBlocWithAttn(
        (res_block): ResnetBlock(
          (noise_func): FeatureWiseAffine(
            (noise_func): Sequential(
              (0): Linear(in_features=48, out_features=96, bias=True)
            )
          )
          (block1): Block(
            (block): Sequential(
              (0): GroupNorm(24, 144, eps=1e-05, affine=True)
              (1): Swish()
              (2): Identity()
              (3): Conv2d(144, 96, kernel_size=(3, 3), stride=(1, 1), padding=(1, 1))
            )
          )
          (block2): Block(
            (block): Sequential(
              (0): GroupNorm(24, 96, eps=1e-05, affine=True)
              (1): Swish()
              (2): Dropout(p=0.1, inplace=False)
              (3): Conv2d(96, 96, kernel_size=(3, 3), stride=(1, 1), padding=(1, 1))
            )
          )
          (res_conv): Conv2d(144, 96, kernel_size=(1, 1), stride=(1, 1))
        )
      )
      (11): Upsample(
        (up): Upsample(scale_factor=2.0, mode='nearest')
        (conv): Conv2d(96, 96, kernel_size=(3, 3), stride=(1, 1), padding=(1, 1))
      )
      (12): ResnetBlocWithAttn(
        (res_block): ResnetBlock(
          (noise_func): FeatureWiseAffine(
            (noise_func): Sequential(
              (0): Linear(in_features=48, out_features=48, bias=True)
            )
          )
          (block1): Block(
            (block): Sequential(
              (0): GroupNorm(24, 144, eps=1e-05, affine=True)
              (1): Swish()
              (2): Identity()
              (3): Conv2d(144, 48, kernel_size=(3, 3), stride=(1, 1), padding=(1, 1))
            )
          )
          (block2): Block(
            (block): Sequential(
              (0): GroupNorm(24, 48, eps=1e-05, affine=True)
              (1): Swish()
              (2): Dropout(p=0.1, inplace=False)
              (3): Conv2d(48, 48, kernel_size=(3, 3), stride=(1, 1), padding=(1, 1))
            )
          )
          (res_conv): Conv2d(144, 48, kernel_size=(1, 1), stride=(1, 1))
        )
      )
      (13-14): 2 x ResnetBlocWithAttn(
        (res_block): ResnetBlock(
          (noise_func): FeatureWiseAffine(
            (noise_func): Sequential(
              (0): Linear(in_features=48, out_features=48, bias=True)
            )
          )
          (block1): Block(
            (block): Sequential(
              (0): GroupNorm(24, 96, eps=1e-05, affine=True)
              (1): Swish()
              (2): Identity()
              (3): Conv2d(96, 48, kernel_size=(3, 3), stride=(1, 1), padding=(1, 1))
            )
          )
          (block2): Block(
            (block): Sequential(
              (0): GroupNorm(24, 48, eps=1e-05, affine=True)
              (1): Swish()
              (2): Dropout(p=0.1, inplace=False)
              (3): Conv2d(48, 48, kernel_size=(3, 3), stride=(1, 1), padding=(1, 1))
            )
          )
          (res_conv): Conv2d(96, 48, kernel_size=(1, 1), stride=(1, 1))
        )
      )
    )
    (final_conv): Block(
      (block): Sequential(
        (0): GroupNorm(24, 48, eps=1e-05, affine=True)
        (1): Swish()
        (2): Identity()
        (3): Conv2d(48, 1, kernel_size=(3, 3), stride=(1, 1), padding=(1, 1))
      )
    )
  )
  (refinement_fn): Restormer_fn(
    (noise_level_mlp): Sequential(
      (0): PositionalEncoding()
      (1): Linear(in_features=36, out_features=144, bias=True)
      (2): Swish()
      (3): Linear(in_features=144, out_features=36, bias=True)
    )
    (patch_embed): OverlapPatchEmbed(
      (proj): Conv2d(1, 36, kernel_size=(3, 3), stride=(1, 1), padding=(1, 1), bias=False)
    )
    (patch_embed_refine): OverlapPatchEmbed(
      (proj): Conv2d(2, 36, kernel_size=(3, 3), stride=(1, 1), padding=(1, 1), bias=False)
    )
    (encoder_level1): Sequential(
      (0): TransformerBlock(
        (norm1): LayerNorm(
          (body): WithBias_LayerNorm()
        )
        (attn): Attention(
          (qkv): Conv2d(36, 108, kernel_size=(1, 1), stride=(1, 1), bias=False)
          (qkv_dwconv): Conv2d(108, 108, kernel_size=(3, 3), stride=(1, 1), padding=(1, 1), groups=108, bias=False)
          (project_out): Conv2d(36, 36, kernel_size=(1, 1), stride=(1, 1), bias=False)
        )
        (norm2): LayerNorm(
          (body): WithBias_LayerNorm()
        )
        (ffn): FeedForward(
          (project_in): Conv2d(36, 95, kernel_size=(1, 1), stride=(1, 1), bias=False)
          (dwconv): Conv2d(95, 95, kernel_size=(3, 3), stride=(1, 1), padding=(1, 1), bias=False)
          (project_out): Conv2d(95, 36, kernel_size=(1, 1), stride=(1, 1), bias=False)
        )
      )
      (1): FeatureWiseAffine(
        (noise_func): Sequential(
          (0): Linear(in_features=36, out_features=36, bias=True)
        )
      )
      (2): TransformerBlock(
        (norm1): LayerNorm(
          (body): WithBias_LayerNorm()
        )
        (attn): Attention(
          (qkv): Conv2d(36, 108, kernel_size=(1, 1), stride=(1, 1), bias=False)
          (qkv_dwconv): Conv2d(108, 108, kernel_size=(3, 3), stride=(1, 1), padding=(1, 1), groups=108, bias=False)
          (project_out): Conv2d(36, 36, kernel_size=(1, 1), stride=(1, 1), bias=False)
        )
        (norm2): LayerNorm(
          (body): WithBias_LayerNorm()
        )
        (ffn): FeedForward(
          (project_in): Conv2d(36, 95, kernel_size=(1, 1), stride=(1, 1), bias=False)
          (dwconv): Conv2d(95, 95, kernel_size=(3, 3), stride=(1, 1), padding=(1, 1), bias=False)
          (project_out): Conv2d(95, 36, kernel_size=(1, 1), stride=(1, 1), bias=False)
        )
      )
      (3): FeatureWiseAffine(
        (noise_func): Sequential(
          (0): Linear(in_features=36, out_features=36, bias=True)
        )
      )
    )
    (encoder_level1_refine): Sequential(
      (0): TransformerBlock(
        (norm1): LayerNorm(
          (body): WithBias_LayerNorm()
        )
        (attn): Attention(
          (qkv): Conv2d(36, 108, kernel_size=(1, 1), stride=(1, 1), bias=False)
          (qkv_dwconv): Conv2d(108, 108, kernel_size=(3, 3), stride=(1, 1), padding=(1, 1), groups=108, bias=False)
          (project_out): Conv2d(36, 36, kernel_size=(1, 1), stride=(1, 1), bias=False)
        )
        (norm2): LayerNorm(
          (body): WithBias_LayerNorm()
        )
        (ffn): FeedForward(
          (project_in): Conv2d(36, 95, kernel_size=(1, 1), stride=(1, 1), bias=False)
          (dwconv): Conv2d(95, 95, kernel_size=(3, 3), stride=(1, 1), padding=(1, 1), bias=False)
          (project_out): Conv2d(95, 36, kernel_size=(1, 1), stride=(1, 1), bias=False)
        )
      )
      (1): FeatureWiseAffine(
        (noise_func): Sequential(
          (0): Linear(in_features=36, out_features=36, bias=True)
        )
      )
      (2): TransformerBlock(
        (norm1): LayerNorm(
          (body): WithBias_LayerNorm()
        )
        (attn): Attention(
          (qkv): Conv2d(36, 108, kernel_size=(1, 1), stride=(1, 1), bias=False)
          (qkv_dwconv): Conv2d(108, 108, kernel_size=(3, 3), stride=(1, 1), padding=(1, 1), groups=108, bias=False)
          (project_out): Conv2d(36, 36, kernel_size=(1, 1), stride=(1, 1), bias=False)
        )
        (norm2): LayerNorm(
          (body): WithBias_LayerNorm()
        )
        (ffn): FeedForward(
          (project_in): Conv2d(36, 95, kernel_size=(1, 1), stride=(1, 1), bias=False)
          (dwconv): Conv2d(95, 95, kernel_size=(3, 3), stride=(1, 1), padding=(1, 1), bias=False)
          (project_out): Conv2d(95, 36, kernel_size=(1, 1), stride=(1, 1), bias=False)
        )
      )
      (3): FeatureWiseAffine(
        (noise_func): Sequential(
          (0): Linear(in_features=36, out_features=36, bias=True)
        )
      )
    )
    (reduce_chan_level1_refine): Conv2d(72, 36, kernel_size=(1, 1), stride=(1, 1), bias=False)
    (encoder_level2): Sequential(
      (0): TransformerBlock(
        (norm1): LayerNorm(
          (body): WithBias_LayerNorm()
        )
        (attn): Attention(
          (qkv): Conv2d(36, 108, kernel_size=(1, 1), stride=(1, 1), bias=False)
          (qkv_dwconv): Conv2d(108, 108, kernel_size=(3, 3), stride=(1, 1), padding=(1, 1), groups=108, bias=False)
          (project_out): Conv2d(36, 36, kernel_size=(1, 1), stride=(1, 1), bias=False)
        )
        (norm2): LayerNorm(
          (body): WithBias_LayerNorm()
        )
        (ffn): FeedForward(
          (project_in): Conv2d(36, 95, kernel_size=(1, 1), stride=(1, 1), bias=False)
          (dwconv): Conv2d(95, 95, kernel_size=(3, 3), stride=(1, 1), padding=(1, 1), bias=False)
          (project_out): Conv2d(95, 36, kernel_size=(1, 1), stride=(1, 1), bias=False)
        )
      )
      (1): FeatureWiseAffine(
        (noise_func): Sequential(
          (0): Linear(in_features=36, out_features=36, bias=True)
        )
      )
      (2): TransformerBlock(
        (norm1): LayerNorm(
          (body): WithBias_LayerNorm()
        )
        (attn): Attention(
          (qkv): Conv2d(36, 108, kernel_size=(1, 1), stride=(1, 1), bias=False)
          (qkv_dwconv): Conv2d(108, 108, kernel_size=(3, 3), stride=(1, 1), padding=(1, 1), groups=108, bias=False)
          (project_out): Conv2d(36, 36, kernel_size=(1, 1), stride=(1, 1), bias=False)
        )
        (norm2): LayerNorm(
          (body): WithBias_LayerNorm()
        )
        (ffn): FeedForward(
          (project_in): Conv2d(36, 95, kernel_size=(1, 1), stride=(1, 1), bias=False)
          (dwconv): Conv2d(95, 95, kernel_size=(3, 3), stride=(1, 1), padding=(1, 1), bias=False)
          (project_out): Conv2d(95, 36, kernel_size=(1, 1), stride=(1, 1), bias=False)
        )
      )
      (3): FeatureWiseAffine(
        (noise_func): Sequential(
          (0): Linear(in_features=36, out_features=36, bias=True)
        )
      )
    )
    (encoder_level2_refine): Sequential(
      (0): TransformerBlock(
        (norm1): LayerNorm(
          (body): WithBias_LayerNorm()
        )
        (attn): Attention(
          (qkv): Conv2d(36, 108, kernel_size=(1, 1), stride=(1, 1), bias=False)
          (qkv_dwconv): Conv2d(108, 108, kernel_size=(3, 3), stride=(1, 1), padding=(1, 1), groups=108, bias=False)
          (project_out): Conv2d(36, 36, kernel_size=(1, 1), stride=(1, 1), bias=False)
        )
        (norm2): LayerNorm(
          (body): WithBias_LayerNorm()
        )
        (ffn): FeedForward(
          (project_in): Conv2d(36, 95, kernel_size=(1, 1), stride=(1, 1), bias=False)
          (dwconv): Conv2d(95, 95, kernel_size=(3, 3), stride=(1, 1), padding=(1, 1), bias=False)
          (project_out): Conv2d(95, 36, kernel_size=(1, 1), stride=(1, 1), bias=False)
        )
      )
      (1): FeatureWiseAffine(
        (noise_func): Sequential(
          (0): Linear(in_features=36, out_features=36, bias=True)
        )
      )
      (2): TransformerBlock(
        (norm1): LayerNorm(
          (body): WithBias_LayerNorm()
        )
        (attn): Attention(
          (qkv): Conv2d(36, 108, kernel_size=(1, 1), stride=(1, 1), bias=False)
          (qkv_dwconv): Conv2d(108, 108, kernel_size=(3, 3), stride=(1, 1), padding=(1, 1), groups=108, bias=False)
          (project_out): Conv2d(36, 36, kernel_size=(1, 1), stride=(1, 1), bias=False)
        )
        (norm2): LayerNorm(
          (body): WithBias_LayerNorm()
        )
        (ffn): FeedForward(
          (project_in): Conv2d(36, 95, kernel_size=(1, 1), stride=(1, 1), bias=False)
          (dwconv): Conv2d(95, 95, kernel_size=(3, 3), stride=(1, 1), padding=(1, 1), bias=False)
          (project_out): Conv2d(95, 36, kernel_size=(1, 1), stride=(1, 1), bias=False)
        )
      )
      (3): FeatureWiseAffine(
        (noise_func): Sequential(
          (0): Linear(in_features=36, out_features=36, bias=True)
        )
      )
    )
    (reduce_chan_level2_refine): Conv2d(72, 36, kernel_size=(1, 1), stride=(1, 1), bias=False)
    (decoder_level2): Sequential(
      (0): TransformerBlock(
        (norm1): LayerNorm(
          (body): WithBias_LayerNorm()
        )
        (attn): Attention(
          (qkv): Conv2d(36, 108, kernel_size=(1, 1), stride=(1, 1), bias=False)
          (qkv_dwconv): Conv2d(108, 108, kernel_size=(3, 3), stride=(1, 1), padding=(1, 1), groups=108, bias=False)
          (project_out): Conv2d(36, 36, kernel_size=(1, 1), stride=(1, 1), bias=False)
        )
        (norm2): LayerNorm(
          (body): WithBias_LayerNorm()
        )
        (ffn): FeedForward(
          (project_in): Conv2d(36, 95, kernel_size=(1, 1), stride=(1, 1), bias=False)
          (dwconv): Conv2d(95, 95, kernel_size=(3, 3), stride=(1, 1), padding=(1, 1), bias=False)
          (project_out): Conv2d(95, 36, kernel_size=(1, 1), stride=(1, 1), bias=False)
        )
      )
      (1): FeatureWiseAffine(
        (noise_func): Sequential(
          (0): Linear(in_features=36, out_features=36, bias=True)
        )
      )
      (2): TransformerBlock(
        (norm1): LayerNorm(
          (body): WithBias_LayerNorm()
        )
        (attn): Attention(
          (qkv): Conv2d(36, 108, kernel_size=(1, 1), stride=(1, 1), bias=False)
          (qkv_dwconv): Conv2d(108, 108, kernel_size=(3, 3), stride=(1, 1), padding=(1, 1), groups=108, bias=False)
          (project_out): Conv2d(36, 36, kernel_size=(1, 1), stride=(1, 1), bias=False)
        )
        (norm2): LayerNorm(
          (body): WithBias_LayerNorm()
        )
        (ffn): FeedForward(
          (project_in): Conv2d(36, 95, kernel_size=(1, 1), stride=(1, 1), bias=False)
          (dwconv): Conv2d(95, 95, kernel_size=(3, 3), stride=(1, 1), padding=(1, 1), bias=False)
          (project_out): Conv2d(95, 36, kernel_size=(1, 1), stride=(1, 1), bias=False)
        )
      )
      (3): FeatureWiseAffine(
        (noise_func): Sequential(
          (0): Linear(in_features=36, out_features=36, bias=True)
        )
      )
    )
    (reduce_chan_level1): Conv2d(72, 36, kernel_size=(1, 1), stride=(1, 1), bias=False)
    (decoder_level1): Sequential(
      (0): TransformerBlock(
        (norm1): LayerNorm(
          (body): WithBias_LayerNorm()
        )
        (attn): Attention(
          (qkv): Conv2d(36, 108, kernel_size=(1, 1), stride=(1, 1), bias=False)
          (qkv_dwconv): Conv2d(108, 108, kernel_size=(3, 3), stride=(1, 1), padding=(1, 1), groups=108, bias=False)
          (project_out): Conv2d(36, 36, kernel_size=(1, 1), stride=(1, 1), bias=False)
        )
        (norm2): LayerNorm(
          (body): WithBias_LayerNorm()
        )
        (ffn): FeedForward(
          (project_in): Conv2d(36, 95, kernel_size=(1, 1), stride=(1, 1), bias=False)
          (dwconv): Conv2d(95, 95, kernel_size=(3, 3), stride=(1, 1), padding=(1, 1), bias=False)
          (project_out): Conv2d(95, 36, kernel_size=(1, 1), stride=(1, 1), bias=False)
        )
      )
      (1): FeatureWiseAffine(
        (noise_func): Sequential(
          (0): Linear(in_features=36, out_features=36, bias=True)
        )
      )
      (2): TransformerBlock(
        (norm1): LayerNorm(
          (body): WithBias_LayerNorm()
        )
        (attn): Attention(
          (qkv): Conv2d(36, 108, kernel_size=(1, 1), stride=(1, 1), bias=False)
          (qkv_dwconv): Conv2d(108, 108, kernel_size=(3, 3), stride=(1, 1), padding=(1, 1), groups=108, bias=False)
          (project_out): Conv2d(36, 36, kernel_size=(1, 1), stride=(1, 1), bias=False)
        )
        (norm2): LayerNorm(
          (body): WithBias_LayerNorm()
        )
        (ffn): FeedForward(
          (project_in): Conv2d(36, 95, kernel_size=(1, 1), stride=(1, 1), bias=False)
          (dwconv): Conv2d(95, 95, kernel_size=(3, 3), stride=(1, 1), padding=(1, 1), bias=False)
          (project_out): Conv2d(95, 36, kernel_size=(1, 1), stride=(1, 1), bias=False)
        )
      )
      (3): FeatureWiseAffine(
        (noise_func): Sequential(
          (0): Linear(in_features=36, out_features=36, bias=True)
        )
      )
    )
    (reduce_chan_level_out): Conv2d(72, 36, kernel_size=(1, 1), stride=(1, 1), bias=False)
    (refinement): Sequential(
      (0): TransformerBlock(
        (norm1): LayerNorm(
          (body): WithBias_LayerNorm()
        )
        (attn): Attention(
          (qkv): Conv2d(36, 108, kernel_size=(1, 1), stride=(1, 1), bias=False)
          (qkv_dwconv): Conv2d(108, 108, kernel_size=(3, 3), stride=(1, 1), padding=(1, 1), groups=108, bias=False)
          (project_out): Conv2d(36, 36, kernel_size=(1, 1), stride=(1, 1), bias=False)
        )
        (norm2): LayerNorm(
          (body): WithBias_LayerNorm()
        )
        (ffn): FeedForward(
          (project_in): Conv2d(36, 95, kernel_size=(1, 1), stride=(1, 1), bias=False)
          (dwconv): Conv2d(95, 95, kernel_size=(3, 3), stride=(1, 1), padding=(1, 1), bias=False)
          (project_out): Conv2d(95, 36, kernel_size=(1, 1), stride=(1, 1), bias=False)
        )
      )
      (1): TransformerBlock(
        (norm1): LayerNorm(
          (body): WithBias_LayerNorm()
        )
        (attn): Attention(
          (qkv): Conv2d(36, 108, kernel_size=(1, 1), stride=(1, 1), bias=False)
          (qkv_dwconv): Conv2d(108, 108, kernel_size=(3, 3), stride=(1, 1), padding=(1, 1), groups=108, bias=False)
          (project_out): Conv2d(36, 36, kernel_size=(1, 1), stride=(1, 1), bias=False)
        )
        (norm2): LayerNorm(
          (body): WithBias_LayerNorm()
        )
        (ffn): FeedForward(
          (project_in): Conv2d(36, 95, kernel_size=(1, 1), stride=(1, 1), bias=False)
          (dwconv): Conv2d(95, 95, kernel_size=(3, 3), stride=(1, 1), padding=(1, 1), bias=False)
          (project_out): Conv2d(95, 36, kernel_size=(1, 1), stride=(1, 1), bias=False)
        )
      )
    )
    (output): Conv2d(36, 1, kernel_size=(3, 3), stride=(1, 1), padding=(1, 1), bias=False)
  )
  (loss_func): L1Loss()
  (grad_loss): Grad_loss()
  (ssim_loss): SSIM_loss()
)
25-03-12 15:26:14.110 - INFO: Initial Model Finished
25-03-12 15:26:39.410 - INFO: <epoch:  2, iter:     100> l_pix: 5.6965e+00 l_eps: 1.1588e+00 l_max: 2.6854e-01 l_grad: 1.9830e+00 l_ssim: 1.2139e+00 l_x0: 1.0724e+00 
25-03-12 15:26:58.614 - INFO: <epoch:  3, iter:     200> l_pix: 5.7718e+00 l_eps: 1.3080e+00 l_max: 3.9099e-01 l_grad: 1.8454e+00 l_ssim: 1.0768e+00 l_x0: 1.1506e+00 
…
